…
  miRNA: 2062 → 1870 features (MAD top-1870)
    Imputing 4326466 missing values (k-NN, k=10)
  Methy: 25545 → 2000 features (MAD top-2000)
    Imputing 497879 missing values (k-NN, k=10)
  CNV: 21482 → 2000 features (MAD top-2000)
    Imputing 157530 missing values (k-NN, k=10)
Encoded 12 cancer types
Processed feature dimensions: {'mRNA': (3304, 2000), 'miRNA': (3304, 1870), 'Methy': (3304, 2000), 'CNV': (3304, 2000)}
Dataset: 3304 samples
Feature dims: {'mRNA': 2000, 'miRNA': 1870, 'Methy': 2000, 'CNV': 2000}
HiOmicsFormer(
  (encoders): ModuleDict(
    (mRNA): HierarchicalOmicsEncoder(
      (input_proj): Sequential(
        (0): Linear(in_features=2000, out_features=256, bias=True)
        (1): LayerNorm((256,), eps=1e-05, elementwise_affine=True)
        (2): GELU(approximate='none')
      )
      (local_projections): ModuleList(
        (0): Sequential(
          (0): Linear(in_features=16, out_features=256, bias=True)
          (1): LayerNorm((256,), eps=1e-05, elementwise_affine=True)
          (2): GELU(approximate='none')
        )
        (1): Sequential(
          (0): Linear(in_features=32, out_features=256, bias=True)
          (1): LayerNorm((256,), eps=1e-05, elementwise_affine=True)
          (2): GELU(approximate='none')
        )
        (2): Sequential(
          (0): Linear(in_features=64, out_features=256, bias=True)
          (1): LayerNorm((256,), eps=1e-05, elementwise_affine=True)
          (2): GELU(approximate='none')
        )
      )
      (cls_tokens): ParameterList(
          (0): Parameter containing: [torch.float32 of size 1x1x256]
          (1): Parameter containing: [torch.float32 of size 1x1x256]
          (2): Parameter containing: [torch.float32 of size 1x1x256]
      )
      (pos_encodings): ModuleList(
        (0-2): 3 x PositionalEncoding(
          (dropout): Dropout(p=0.1, inplace=False)
        )
      )
      (local_transformers): ModuleList(
        (0-2): 3 x ModuleList(
          (0-3): 4 x TransformerBlock(
            (attn): MultiheadAttention(
              (out_proj): NonDynamicallyQuantizableLinear(in_features=256, out_features=256, bias=True)
            )
            (ff): FeedForward(
              (net): Sequential(
                (0): Linear(in_features=256, out_features=1024, bias=True)
                (1): GELU(approximate='none')
                (2): Dropout(p=0.1, inplace=False)
                (3): Linear(in_features=1024, out_features=256, bias=True)
                (4): Dropout(p=0.1, inplace=False)
              )
            )
            (norm1): LayerNorm((256,), eps=1e-05, elementwise_affine=True)
            (norm2): LayerNorm((256,), eps=1e-05, elementwise_affine=True)
          )
        )
      )
      (scale_fusion): Sequential(
        (0): Linear(in_features=768, out_features=512, bias=True)
        (1): GELU(approximate='none')
        (2): Dropout(p=0.1, inplace=False)
        (3): Linear(in_features=512, out_features=256, bias=True)
        (4): LayerNorm((256,), eps=1e-05, elementwise_affine=True)
      )
      (output_norm): LayerNorm((256,), eps=1e-05, elementwise_affine=True)
    )
    (miRNA): HierarchicalOmicsEncoder(
      (input_proj): Sequential(
        (0): Linear(in_features=1870, out_features=256, bias=True)
        (1): LayerNorm((256,), eps=1e-05, elementwise_affine=True)
        (2): GELU(approximate='none')
      )
      (local_projections): ModuleList(
        (0): Sequential(
          (0): Linear(in_features=16, out_features=256, bias=True)
          (1): LayerNorm((256,), eps=1e-05, elementwise_affine=True)
          (2): GELU(approximate='none')
        )
        (1): Sequential(
          (0): Linear(in_features=32, out_features=256, bias=True)
          (1): LayerNorm((256,), eps=1e-05, elementwise_affine=True)
          (2): GELU(approximate='none')
        )
        (2): Sequential(
          (0): Linear(in_features=64, out_features=256, bias=True)
          (1): LayerNorm((256,), eps=1e-05, elementwise_affine=True)
          (2): GELU(approximate='none')
        )
      )
      (cls_tokens): ParameterList(
          (0): Parameter containing: [torch.float32 of size 1x1x256]
          (1): Parameter containing: [torch.float32 of size 1x1x256]
          (2): Parameter containing: [torch.float32 of size 1x1x256]
      )
      (pos_encodings): ModuleList(
        (0-2): 3 x PositionalEncoding(
          (dropout): Dropout(p=0.1, inplace=False)
        )
      )
      (local_transformers): ModuleList(
        (0-2): 3 x ModuleList(
          (0-3): 4 x TransformerBlock(
            (attn): MultiheadAttention(
              (out_proj): NonDynamicallyQuantizableLinear(in_features=256, out_features=256, bias=True)
            )
            (ff): FeedForward(
              (net): Sequential(
                (0): Linear(in_features=256, out_features=1024, bias=True)
                (1): GELU(approximate='none')
                (2): Dropout(p=0.1, inplace=False)
                (3): Linear(in_features=1024, out_features=256, bias=True)
                (4): Dropout(p=0.1, inplace=False)
              )
            )
            (norm1): LayerNorm((256,), eps=1e-05, elementwise_affine=True)
            (norm2): LayerNorm((256,), eps=1e-05, elementwise_affine=True)
          )
        )
      )
      (scale_fusion): Sequential(
        (0): Linear(in_features=768, out_features=512, bias=True)
        (1): GELU(approximate='none')
        (2): Dropout(p=0.1, inplace=False)
        (3): Linear(in_features=512, out_features=256, bias=True)
        (4): LayerNorm((256,), eps=1e-05, elementwise_affine=True)
      )
      (output_norm): LayerNorm((256,), eps=1e-05, elementwise_affine=True)
    )
    (Methy): HierarchicalOmicsEncoder(
      (input_proj): Sequential(
        (0): Linear(in_features=2000, out_features=256, bias=True)
        (1): LayerNorm((256,), eps=1e-05, elementwise_affine=True)
        (2): GELU(approximate='none')
      )
      (local_projections): ModuleList(
        (0): Sequential(
          (0): Linear(in_features=16, out_features=256, bias=True)
          (1): LayerNorm((256,), eps=1e-05, elementwise_affine=True)
          (2): GELU(approximate='none')
        )
        (1): Sequential(
          (0): Linear(in_features=32, out_features=256, bias=True)
          (1): LayerNorm((256,), eps=1e-05, elementwise_affine=True)
          (2): GELU(approximate='none')
        )
        (2): Sequential(
          (0): Linear(in_features=64, out_features=256, bias=True)
          (1): LayerNorm((256,), eps=1e-05, elementwise_affine=True)
          (2): GELU(approximate='none')
        )
      )
      (cls_tokens): ParameterList(
          (0): Parameter containing: [torch.float32 of size 1x1x256]
          (1): Parameter containing: [torch.float32 of size 1x1x256]
          (2): Parameter containing: [torch.float32 of size 1x1x256]
      )
      (pos_encodings): ModuleList(
        (0-2): 3 x PositionalEncoding(
          (dropout): Dropout(p=0.1, inplace=False)
        )
      )
      (local_transformers): ModuleList(
        (0-2): 3 x ModuleList(
          (0-3): 4 x TransformerBlock(
            (attn): MultiheadAttention(
              (out_proj): NonDynamicallyQuantizableLinear(in_features=256, out_features=256, bias=True)
            )
            (ff): FeedForward(
              (net): Sequential(
                (0): Linear(in_features=256, out_features=1024, bias=True)
                (1): GELU(approximate='none')
                (2): Dropout(p=0.1, inplace=False)
                (3): Linear(in_features=1024, out_features=256, bias=True)
                (4): Dropout(p=0.1, inplace=False)
              )
            )
            (norm1): LayerNorm((256,), eps=1e-05, elementwise_affine=True)
            (norm2): LayerNorm((256,), eps=1e-05, elementwise_affine=True)
          )
        )
      )
      (scale_fusion): Sequential(
        (0): Linear(in_features=768, out_features=512, bias=True)
        (1): GELU(approximate='none')
        (2): Dropout(p=0.1, inplace=False)
        (3): Linear(in_features=512, out_features=256, bias=True)
        (4): LayerNorm((256,), eps=1e-05, elementwise_affine=True)
      )
      (output_norm): LayerNorm((256,), eps=1e-05, elementwise_affine=True)
    )
    (CNV): HierarchicalOmicsEncoder(
      (input_proj): Sequential(
        (0): Linear(in_features=2000, out_features=256, bias=True)
        (1): LayerNorm((256,), eps=1e-05, elementwise_affine=True)
        (2): GELU(approximate='none')
      )
      (local_projections): ModuleList(
        (0): Sequential(
          (0): Linear(in_features=16, out_features=256, bias=True)
          (1): LayerNorm((256,), eps=1e-05, elementwise_affine=True)
          (2): GELU(approximate='none')
        )
        (1): Sequential(
          (0): Linear(in_features=32, out_features=256, bias=True)
          (1): LayerNorm((256,), eps=1e-05, elementwise_affine=True)
          (2): GELU(approximate='none')
        )
        (2): Sequential(
          (0): Linear(in_features=64, out_features=256, bias=True)
          (1): LayerNorm((256,), eps=1e-05, elementwise_affine=True)
          (2): GELU(approximate='none')
        )
      )
      (cls_tokens): ParameterList(
          (0): Parameter containing: [torch.float32 of size 1x1x256]
          (1): Parameter containing: [torch.float32 of size 1x1x256]
          (2): Parameter containing: [torch.float32 of size 1x1x256]
      )
      (pos_encodings): ModuleList(
        (0-2): 3 x PositionalEncoding(
          (dropout): Dropout(p=0.1, inplace=False)
        )
      )
      (local_transformers): ModuleList(
        (0-2): 3 x ModuleList(
          (0-3): 4 x TransformerBlock(
            (attn): MultiheadAttention(
              (out_proj): NonDynamicallyQuantizableLinear(in_features=256, out_features=256, bias=True)
            )
            (ff): FeedForward(
              (net): Sequential(
                (0): Linear(in_features=256, out_features=1024, bias=True)
                (1): GELU(approximate='none')
                (2): Dropout(p=0.1, inplace=False)
                (3): Linear(in_features=1024, out_features=256, bias=True)
                (4): Dropout(p=0.1, inplace=False)
              )
            )
            (norm1): LayerNorm((256,), eps=1e-05, elementwise_affine=True)
            (norm2): LayerNorm((256,), eps=1e-05, elementwise_affine=True)
          )
        )
      )
      (scale_fusion): Sequential(
        (0): Linear(in_features=768, out_features=512, bias=True)
        (1): GELU(approximate='none')
        (2): Dropout(p=0.1, inplace=False)
        (3): Linear(in_features=512, out_features=256, bias=True)
        (4): LayerNorm((256,), eps=1e-05, elementwise_affine=True)
      )
      (output_norm): LayerNorm((256,), eps=1e-05, elementwise_affine=True)
    )
  )
  (cocl): CrossOmicsContrastiveLearning(
    (projectors): ModuleDict(
      (mRNA): Sequential(
        (0): Linear(in_features=256, out_features=256, bias=True)
        (1): ReLU()
        (2): Linear(in_features=256, out_features=128, bias=True)
      )
      (miRNA): Sequential(
        (0): Linear(in_features=256, out_features=256, bias=True)
        (1): ReLU()
        (2): Linear(in_features=256, out_features=128, bias=True)
      )
      (Methy): Sequential(
        (0): Linear(in_features=256, out_features=256, bias=True)
        (1): ReLU()
        (2): Linear(in_features=256, out_features=128, bias=True)
      )
      (CNV): Sequential(
        (0): Linear(in_features=256, out_features=256, bias=True)
        (1): ReLU()
        (2): Linear(in_features=256, out_features=128, bias=True)
      )
    )
  )
  (cross_modal_layers): ModuleList(
    (0-1): 2 x GatedCrossModalAttention(
      (cross_attn): ModuleDict(
        (mRNA): MultiheadAttention(
          (out_proj): NonDynamicallyQuantizableLinear(in_features=256, out_features=256, bias=True)
        )
        (miRNA): MultiheadAttention(
          (out_proj): NonDynamicallyQuantizableLinear(in_features=256, out_features=256, bias=True)
        )
        (Methy): MultiheadAttention(
          (out_proj): NonDynamicallyQuantizableLinear(in_features=256, out_features=256, bias=True)
        )
        (CNV): MultiheadAttention(
          (out_proj): NonDynamicallyQuantizableLinear(in_features=256, out_features=256, bias=True)
        )
      )
      (gate_net): ModuleDict(
        (mRNA): Sequential(
          (0): Linear(in_features=512, out_features=64, bias=True)
          (1): Tanh()
          (2): Linear(in_features=64, out_features=1, bias=True)
        )
        (miRNA): Sequential(
          (0): Linear(in_features=512, out_features=64, bias=True)
          (1): Tanh()
          (2): Linear(in_features=64, out_features=1, bias=True)
        )
        (Methy): Sequential(
          (0): Linear(in_features=512, out_features=64, bias=True)
          (1): Tanh()
          (2): Linear(in_features=64, out_features=1, bias=True)
        )
        (CNV): Sequential(
          (0): Linear(in_features=512, out_features=64, bias=True)
          (1): Tanh()
          (2): Linear(in_features=64, out_features=1, bias=True)
        )
      )
      (norms): ModuleDict(
        (mRNA): LayerNorm((256,), eps=1e-05, elementwise_affine=True)
        (miRNA): LayerNorm((256,), eps=1e-05, elementwise_affine=True)
        (Methy): LayerNorm((256,), eps=1e-05, elementwise_affine=True)
        (CNV): LayerNorm((256,), eps=1e-05, elementwise_affine=True)
      )
      (ffs): ModuleDict(
        (mRNA): FeedForward(
          (net): Sequential(
            (0): Linear(in_features=256, out_features=1024, bias=True)
            (1): GELU(approximate='none')
            (2): Dropout(p=0.1, inplace=False)
            (3): Linear(in_features=1024, out_features=256, bias=True)
            (4): Dropout(p=0.1, inplace=False)
          )
        )
        (miRNA): FeedForward(
          (net): Sequential(
            (0): Linear(in_features=256, out_features=1024, bias=True)
            (1): GELU(approximate='none')
            (2): Dropout(p=0.1, inplace=False)
            (3): Linear(in_features=1024, out_features=256, bias=True)
            (4): Dropout(p=0.1, inplace=False)
          )
        )
        (Methy): FeedForward(
          (net): Sequential(
            (0): Linear(in_features=256, out_features=1024, bias=True)
            (1): GELU(approximate='none')
            (2): Dropout(p=0.1, inplace=False)
            (3): Linear(in_features=1024, out_features=256, bias=True)
            (4): Dropout(p=0.1, inplace=False)
          )
        )
        (CNV): FeedForward(
          (net): Sequential(
            (0): Linear(in_features=256, out_features=1024, bias=True)
            (1): GELU(approximate='none')
            (2): Dropout(p=0.1, inplace=False)
            (3): Linear(in_features=1024, out_features=256, bias=True)
            (4): Dropout(p=0.1, inplace=False)
          )
        )
      )
    )
  )
  (fusion): Sequential(
    (0): Linear(in_features=1024, out_features=256, bias=True)
    (1): LayerNorm((256,), eps=1e-05, elementwise_affine=True)
    (2): GELU(approximate='none')
  )
  (fc_mu): Linear(in_features=256, out_features=128, bias=True)
  (fc_logvar): Linear(in_features=256, out_features=128, bias=True)
  (cluster_head): Linear(in_features=128, out_features=12, bias=True)
  (decoders): ModuleDict(
    (mRNA): Sequential(
      (0): Linear(in_features=128, out_features=256, bias=True)
      (1): GELU(approximate='none')
      (2): Linear(in_features=256, out_features=2000, bias=True)
    )
    (miRNA): Sequential(
      (0): Linear(in_features=128, out_features=256, bias=True)
      (1): GELU(approximate='none')
      (2): Linear(in_features=256, out_features=1870, bias=True)
    )
    (Methy): Sequential(
      (0): Linear(in_features=128, out_features=256, bias=True)
      (1): GELU(approximate='none')
      (2): Linear(in_features=256, out_features=2000, bias=True)
    )
    (CNV): Sequential(
      (0): Linear(in_features=128, out_features=256, bias=True)
      (1): GELU(approximate='none')
      (2): Linear(in_features=256, out_features=2000, bias=True)
    )
  )
)
